Backend/saved_car_model_log_v1/model.ckpt (torch, 914747 bytes, 141 tensors)

_backbone.add_cls.weight f4 [32]
0	0x3dffb261	0.12485195
1	0x3e109739	0.14120187
2	0xbd5d145e	-0.0539745
3	0x3e16ece0	0.14738798
4	0xbd677f70	-0.05651802
5	0x3d640aa6	0.055674218
6	0xbd9a437f	-0.07532405
7	0x3dff6035	0.12469522
8	0x3e04a36b	0.12952964
9	0xbdf76cfb	-0.12081333
10	0x3e06d804	0.13168341
11	0x3c99be09	0.018767374
12	0x3dfe0720	0.12403703
13	0x3baba39c	0.0052380096
14	0x3dc8f64e	0.09812604
15	0xbbb463cf	-0.005505062
16	0x3e17ef7a	0.14837447
17	0x3d278beb	0.04090492
18	0xbdd2653c	-0.10273215
19	0x3cfc21e5	0.03077788
20	0xbdd092c3	-0.101842426
21	0xbc16b19a	-0.009197617
22	0xbdb88a65	-0.09010772
23	0x3e0dd064	0.13849026
24	0xbe211438	-0.15730369
25	0xbde9acd3	-0.11409917
26	0xbd8a0399	-0.067389674
27	0xbda6bebc	-0.081418484
28	0x3d347467	0.044056322
29	0xbe1ac174	-0.15112859
30	0x3e35626e	0.17713329
31	0xbe2e91dc	-0.17047828

_backbone.transformer_blocks.mha_block_0.mha.to_qkv.weight f4 [384, 32]
0	0x3e528ff9	0.20562734
1	0x3dd1c05a	0.10241766
2	0xbe0816ff	-0.13290022
3	0x3e38cdf2	0.18047312
4	0xbd5957ab	-0.053062122
5	0x3e6c447c	0.23073
6	0xbd88a7f0	-0.066726565
7	0x3c9edc3e	0.019392129
8	0x3dee5132	0.116365805
9	0xbe05636b	-0.13026206
10	0x3e0b03b4	0.13575631
11	0x3e5c682f	0.21524118
12	0x3e34479f	0.17605446
13	0xbd486863	-0.048927676
14	0x3e384394	0.17994529
15	0xbd100ad2	-0.03516657
16	0x3e24fbf8	0.16111743
17	0xbca51840	-0.020153165
18	0xbe79cd7b	-0.24394791
19	0xbd67619b	-0.05648957
20	0xbe666270	-0.22498488
21	0x3da658b7	0.0812239
22	0xbd0dd281	-0.03462458
23	0x3e24f057	0.16107307
24	0xbc42ea08	-0.011896618
25	0xbda973d6	-0.08274047
26	0x3d0d19e4	0.03444852
27	0xbe502f3f	-0.20330523
28	0x3e0fec8b	0.14055078
29	0xbe486b26	-0.19572124
30	0x3e0ada47	0.13559829
31	0xbe0dabe7	-0.13835107
32	0x3d315497	0.04329356
33	0xbd524ba5	-0.05134167
34	0x3e2919d3	0.16513757
35	0xbdf68dd0	-0.12038767
36	0xbdb293b4	-0.087195784
37	0xbe00e2e5	-0.12586553
38	0x3e42f38a	0.19038215
39	0x3d401615	0.04689606
40	0x3e19b00f	0.15008567
41	0xbdf215db	-0.11820575
42	0xbe40ca0c	-0.18827075
43	0xbe138f06	-0.14410028
44	0xbe0cde70	-0.13756728
45	0x3d8e2c81	0.06942082
46	0x3d3004fe	0.04297351
47	0x3e07b87a	0.13253966
48	0xbdd7bb9b	-0.1053383
49	0xbe1617c0	-0.14657497
50	0x3de8fd68	0.113764584
51	0xbda9fa5a	-0.08299704
52	0x3e02e51f	0.12782715
53	0xbd60d2c8	-0.054888517
54	0x3e0a99e7	0.13535272
55	0xbe2362a2	-0.15955594
56	0xbd9307c3	-0.07179215
57	0x3d9679af	0.07347428
58	0x3d8ff091	0.07028306
59	0xbcd884ea	-0.026430566
60	0x3d828fe4	0.06375101
61	0x3e0fabdd	0.14030404
62	0xbe184860	-0.14871359
63	0xbd93e513	-0.07221427
64	0x3e35083a	0.1767892
65	0xbd2a5800	-0.04158783
66	0xbdabaca0	-0.08382535
67	0xbe1f2ff1	-0.15545632
68	0xbded604a	-0.11590631
69	0x3d7a21f2	0.06106753
70	0xbd44767f	-0.04796457
71	0xbde6274b	-0.11237963
72	0x3c98499a	0.018589783
73	0xbe0d6716	-0.13808855
74	0xbe0bbd5f	-0.13646458
75	0xbdc0011a	-0.0937521
76	0xbe0d2241	-0.13782598
77	0xbdd90de1	-0.1059835
78	0x3e43ff8b	0.1914045
79	0x3be4a3ae	0.00697752
80	0x3d947a0f	0.07249843
81	0xbe140235	-0.14453967
82	0xbe043ffb	-0.12915032
83	0xbd823a0d	-0.063587286
84	0x3b3bd2cf	0.0028659587
85	0xbe22f854	-0.15915042
86	0xbdcb93e0	-0.09940314
87	0xbdad8add	-0.08473752
88	0xbc72d68b	-0.014821659
89	0xbda9b22c	-0.08285937
90	0xbd18c7bf	-0.037299868
91	0xbe10d98f	-0.14145492
92	0xbdba9920	-0.091112375
93	0xbdf51580	-0.119669914
94	0xbd277c97	-0.040890303
95	0xbe20cdc4	-0.15703493
96	0x3e209305	0.15681084
97	0xbce08d0c	-0.027411006
98	0x3e1fdebb	0.15612309
99	0x3d854d04	0.0650883
100	0xbe29cf0d	-0.1658289
101	0x3e128208	0.14307415
102	0xbd0c3c93	-0.034237456
103	0xbd6cbcae	-0.057797126
104	0xbe176ffa	-0.1478881
105	0xbe3b6868	-0.18301547
106	0x3d779d6a	0.060452856
107	0xbc5ef6c5	-0.013608639
108	0x3da54e35	0.080715574
109	0xbde0d637	-0.10978358
110	0x3e156d25	0.14592417
111	0xbe044e58	-0.12920511
112	0xbc8e85de	-0.017397817
113	0x3d29d54c	0.04146318
114	0x3da4937c	0.08035943
115	0x3e25332a	0.16132799
116	0x3e1c37cc	0.1525566
117	0xbe3853d0	-0.18000722
118	0x3d85f804	0.06541446
119	0xbd915d66	-0.070978925
120	0xbd0e9c20	-0.03481686
121	0xbe152b61	-0.14567329
122	0x3e2c32ec	0.168163
123	0xbdfd4c5a	-0.123680785
124	0x3ddb677b	0.10713097
125	0x3d61a898	0.055092424
126	0x3d7912c5	0.060808916
127	0xbdd6f1be	-0.104953274
128	0x3e2b92d5	0.1675523
129	0x3d405818	0.046959013
130	0x3c034422	0.00801185
131	0xbe19dc1f	-0.15025376
132	0x3d934352	0.07190575
133	0xbcb03a14	-0.021512069
134	0xbde47116	-0.11154382
135	0x3e221ce4	0.15831333
136	0x3d57d098	0.052689165
137	0xbddd760b	-0.108135305
138	0xbdae468a	-0.08509548
139	0xbc0337c9	-0.008008906
140	0x3dd3a889	0.1033488
141	0xbd6ec8d1	-0.058296982
142	0xbdc7fc49	-0.097649164
143	0xbd89e1cf	-0.06732523
144	0xbe03cf21	-0.12871982
145	0x3da58021	0.08081079
146	0x3e063296	0.13105235
147	0xbe2e89b4	-0.17044717
148	0x3cf7d88d	0.030254627
149	0x3dd5aace	0.10432969
150	0xb9a9fda0	-0.00032423157
151	0xbd5178ef	-0.051140722
152	0x3db8c853	0.09022584
153	0x3db5d5c7	0.088786654
154	0x3d25d389	0.04048494
155	0xbd495be2	-0.049159892
156	0xbd040b68	-0.03223744
157	0x3c12d4e5	0.008961891
158	0xbc92d853	-0.017925417
159	0xbd7ad99c	-0.061242685
160	0x3e1d2477	0.15345941
161	0x3e4a5878	0.1976031
162	0xbd921d76	-0.071345255
163	0x3a0935de	0.0005234162
164	0xbd2136d3	-0.039358925
165	0x3d24ec8b	0.040264647
166	0xbc8bbc79	-0.017057644
167	0x3dc09d40	0.09404993
168	0xbde7fa4b	-0.113270365
169	0xbdee1c8c	-0.11626539
170	0x3e406ffe	0.18792722
171	0x3dcb9d06	0.09942059
172	0x3d05f863	0.032707583
173	0xbdae607a	-0.08514495
174	0xbd82336e	-0.06357466
175	0xbe4fd760	-0.20297003
176	0xbc8e47fa	-0.017368305
177	0x3de65d92	0.11248316
178	0x3d8ed9d2	0.0697514
179	0x3db7fa4b	0.089832865
180	0xbe58cca8	-0.2117182
181	0xbe06189d	-0.13095327
182	0xbdbcb6af	-0.09214532
183	0x3e6484e3	0.22316317
184	0xbc60725c	-0.01369914
185	0xbdbb2232	-0.091373816
186	0x3bc58320	0.006027594
187	0xbdf0ee86	-0.11764245
188	0xbd32f54c	-0.043690965
189	0x3da791d1	0.08182109
190	0xbcf1122e	-0.029427614
191	0xbdad28db	-0.08455058
192	0xbe2d2b52	-0.16911057
193	0x3e025f04	0.12731558
194	0x3e035fc6	0.12829503
195	0x3d916644	0.07099584
196	0xbe005444	-0.12532145
197	0xbe2f2837	-0.17105184
198	0xbe253192	-0.16132191
199	0x3e0cf1ea	0.13764158
200	0x3db60cec	0.088891834
201	0x3e12d1aa	0.14337793
202	0x3dc4c05c	0.09607002
203	0x3d105b1e	0.035243146
204	0x3ba2e8d6	0.004971604
205	0xbe174681	-0.14772989
206	0xbe17348e	-0.14766142
207	0xbe4184ce	-0.18898317
208	0x3da6c01a	0.08142109
209	0xbd81e257	-0.06341999
210	0xbd27e560	-0.040990233
211	0xbdfe9409	-0.12430579
212	0xbd39ad96	-0.04533156
213	0xbdf967b8	-0.12177986
214	0xbe022e93	-0.12713079
215	0x3d9368ca	0.07197721
216	0xbd6334dc	-0.055470333
217	0x3dd5f08c	0.10446271
218	0xbd979108	-0.074007094
219	0xbe159fab	-0.1461169
220	0xbc479170	-0.012180671
221	0xbdbe4169	-0.0928982
222	0xbd2bce08	-0.041944534
223	0xbe334698	-0.17507398
224	0x3dace250	0.08441603
225	0xbe11e1fc	-0.14246362
226	0x3dc2d429	0.095131226
227	0x3d83de2c	0.0643886
228	0x3e248427	0.16066037
229	0xbe2f1e44	-0.17101389
230	0x3dd73599	0.1050827
231	0xbdd8f5c6	-0.105937526
232	0x3d889dda	0.06670733
233	0x3e38975f	0.18026493
234	0xbd2fed52	-0.042950936
235	0xbcd99f6d	-0.026565278
236	0xbd7df22c	-0.06199853
237	0xbe52d249	-0.2058803
238	0x3d4fc112	0.050721236
239	0xbdf98c7a	-0.12184997
240	0x3db05814	0.086105496
241	0x3df971e3	0.12179925
242	0x3e3a8da1	0.1821809
243	0xbd173952	-0.0369199
244	0xbdf4fa78	-0.119618356
245	0x3ddfb57e	0.10923289
246	0x3d96c028	0.0736087
247	0xbe45434a	-0.1926395
248	0xbc7a4ec7	-0.015277571
249	0xbda8606a	-0.082215145
250	0xbc9131cf	-0.017723946
251	0xbdb62163	-0.08893087
252	0xbdeb0e36	-0.1147732
253	0xbd28af73	-0.041182946
254	0xbe36aa01	-0.17838289
255	0x3e2687a2	0.16262677

_backbone.transformer_blocks.mha_block_0.mha.to_out.weight f4 [32, 128]
0	0x3d46df46	0.048552774
1	0xbcf48874	-0.029850222
2	0xbd952963	-0.072832845
3	0xbda8508b	-0.08218487
4	0x3d2d58f3	0.042321157
5	0x3d9e574f	0.077314965
6	0xbcc2f5f2	-0.023798916
7	0x3c143531	0.009045885
8	0xbd2ad0cd	-0.041703034
9	0x3c09f9f0	0.008421406
10	0xbd8a6970	-0.06758392
11	0xbd154020	-0.036438107
12	0xbc3da668	-0.011575319
13	0xbcc054e9	-0.023477988
14	0x3c50bc8d	0.0127402665
15	0xbd9e707a	-0.07736297
16	0xbcc7eeea	-0.024405915
17	0xbd2e5499	-0.042561147
18	0xbc178f82	-0.0092505235
19	0xbce22e06	-0.027609836
20	0x3c3b3869	0.011427023
21	0x3cd9c9d9	0.026585506
22	0xbd480903	-0.04883672
23	0x3b886d3e	0.0041634133
24	0x3d9e20a5	0.0772107
25	0x3bb3890b	0.0054789833
26	0xbd62009f	-0.055176374
27	0x3d3b61dc	0.045747623
28	0xbd9b3d4c	-0.07580051
29	0x3b614b7f	0.0034377275
30	0x3dd76295	0.1051685
31	0x3d29d0b6	0.041458808
32	0x3d59dadb	0.053187232
33	0x3dc2f45d	0.09519265
34	0x3ce605e1	0.028078975
35	0xbcec50b1	-0.02884707
36	0x3c935fcf	0.017990021
37	0x3d8347e0	0.064101934
38	0xbbddb2a4	-0.0067656804
39	0xbd9e063a	-0.077160314
40	0x3daf1dab	0.085505806
41	0x3db68e55	0.089138664
42	0x3d5cf96f	0.053948816
43	0x3d629e2f	0.055326637
44	0x3d675195	0.056474287
45	0xbd69b86d	-0.057060648
46	0xbc9db0ea	-0.019249398
47	0x3cb4c70f	0.022067575
48	0x3cd19ca2	0.025587384
49	0x3d0363bf	0.032077547
50	0x3c837e14	0.01605133
51	0xbdaf07cf	-0.08546411
52	0x3d408eed	0.047011305
53	0xbdba6048	-0.091003954
54	0xbd884444	-0.06653646
55	0x3dcb9063	0.09939649
56	0x3d33e05e	0.043915145
57	0x3d360abd	0.044443835
58	0xbd2dec35	-0.042461593
59	0x3d0dbf36	0.03460618
60	0x3cb5cbfa	0.02219199
61	0x3d894ab5	0.06703702
62	0xbc88d260	-0.016701877
63	0x3dcd30c5	0.10019068
64	0xbc9d0c8a	-0.019171018
65	0x3dc54286	0.09631829
66	0x3dba375b	0.090925895
67	0x3c51e8dc	0.012811866
68	0xbd82b16b	-0.06381496
69	0x3bdca225	0.0067331963
70	0x3d8b401b	0.067993365
71	0xbd810da0	-0.06301427
72	0xbd0b4e40	-0.034010172
73	0x3b12b208	0.0022383947
74	0x3c6e85ea	0.014558295
75	0x3d616abc	0.05503343
76	0x3cc5ea4d	0.024159575
77	0x3b915c0d	0.004436022
78	0x3c3e230d	0.011605036
79	0xbcb0fc06	-0.02160455
80	0xbdb6dafa	-0.08928485
81	0xbd10fc92	-0.03539712
82	0xbda61042	-0.0810857
83	0x3d885d9d	0.0665848
84	0xbc1ad297	-0.009449623
85	0x3c54a661	0.012979121
86	0x3c30ede1	0.010798902
87	0xbd44c208	-0.048036605
88	0xbd576ea1	-0.05259574
89	0xbc7e5146	-0.015522307
90	0x3d10dd1f	0.035367128
91	0xbd47e9ea	-0.048807062
92	0xbd454d10	-0.048169196
93	0x3d83cc84	0.06435493
94	0xbd39f997	-0.045404043
95	0x3d4f33f2	0.05058665
96	0x3d9c911d	0.07644866
97	0x3d95ede5	0.073207654
98	0xbd7ef32c	-0.062243626
99	0x3c8128f0	0.01576659
100	0xbd3c3d41	-0.045956854
101	0x3c918b04	0.017766483
102	0x3c2467ba	0.010034496
103	0xbd137b89	-0.036006484
104	0x3ca4e9a5	0.020130942
105	0x3b911765	0.0044278377
106	0x3d04715c	0.03233467
107	0x3b3d43cb	0.002887952
108	0x3d0ab190	0.033860743
109	0x3d6d0c77	0.057873216
110	0xbab5dfc0	-0.0013875887
111	0x3b67a641	0.0035346898
112	0xbd1294cb	-0.03578643
113	0xbd749c91	-0.059719626
114	0x3d71ad92	0.05900342
115	0x3d7fc4c1	0.0624435
116	0x3d1d37f9	0.038383458
117	0x3d9449ce	0.072406396
118	0x3d4c4d27	0.049878266
119	0x3d2d6c97	0.042339887
120	0xbc67c85c	-0.0141468905
121	0x3c97b95e	0.018521007
122	0xbdb99295	-0.090611614
123	0xbdafedad	-0.08590255
124	0x3d43b554	0.04778035
125	0xbd634a04	-0.05549051
126	0x3da3e181	0.08001996
127	0xbd7b1ebc	-0.061308607
128	0xbdc90d43	-0.098169826
129	0xbdb67fe5	-0.08911113
130	0x3d5869aa	0.052835144
131	0xbd0fdf22	-0.035124905
132	0xbd807dfb	-0.06274029
133	0x3c711d7a	0.0147165
134	0x3c1f8adf	0.009737699
135	0xbdd0357e	-0.10166453
136	0x3d2736a8	0.04082361
137	0x3dd04b5e	0.10170625
138	0x3dcf7a67	0.10130768
139	0x3d862483	0.06549933
140	0xbd4fdd11	-0.050747935
141	0xbd2fd4b5	-0.042927463
142	0xbd533a61	-0.051569346
143	0xbdcef097	-0.101044826
144	0x3d1357dc	0.03597246
145	0xbd4e5835	-0.05037709
146	0x3b719f7a	0.0036868737
147	0xb929817e	-0.00016165336
148	0x3d46daf1	0.048548643
149	0x3cf83936	0.030300718
150	0x3d2cb9ec	0.042169496
151	0x3ccd6376	0.02507184
152	0x3dc16a43	0.09444096
153	0x3c164f0c	0.00917412
154	0x3cd82ee2	0.026389543
155	0x3c318f0b	0.010837327
156	0x3d4ac4d7	0.049504127
157	0xbd4f4f1b	-0.05061255
158	0x3d829b01	0.06377221
159	0xbd075484	-0.033039585
160	0xbcebd76f	-0.02878925
161	0xbd68c09c	-0.05682431
162	0xbd44a5a4	-0.04800953
163	0x3bbb7dba	0.005721775
164	0xbd48ef29	-0.049056206
165	0x3d4d1b96	0.050075136
166	0x3d21566f	0.03938907
167	0xbdb47eec	-0.08813271
168	0x3cd467a3	0.025928324
169	0xbd426ef6	-0.0474691
170	0xbd3a7a41	-0.045526747
171	0xbd5a3326	-0.053271435
172	0x3d9248b5	0.07142774
173	0xbd881d51	-0.06646217
174	0xbd3f6149	-0.046723638
175	0x3d925cce	0.07146607
176	0xbd36fad1	-0.04467279
177	0x3be65b2f	0.007029913
178	0xbdd1bd11	-0.1024114
179	0x3ca44a48	0.020054951
180	0x3ca7e477	0.020494683
181	0xbb7c5cdf	-0.0038507504
182	0xbbdb63bf	-0.0066952403
183	0x399519ae	0.00028438627
184	0xbd116ed8	-0.0355061
185	0x3dadd46c	0.08487782
186	0x3d23b76b	0.039969843
187	0x3cde8758	0.027164146
188	0x3c4fa8bc	0.012674507
189	0x3c4ca7f9	0.01249122
190	0x3d706e78	0.0586991
191	0xbc845973	-0.016155934
192	0x39cbe7b8	0.0003889182
193	0x3d084b6f	0.033275064
194	0x3d2d5a47	0.042322423
195	0xbc1be2e9	-0.009514549
196	0xbd4d4de2	-0.050123103
197	0xb9273dca	-0.0001594938
198	0xbd999edd	-0.07501004
199	0xbdd95da6	-0.10613565
200	0x3d440ab1	0.04786176
201	0xbd23d2d4	-0.039995983
202	0x3de0e8e1	0.10981918
203	0xbd91730b	-0.07102021
204	0xbd19e07f	-0.03756761
205	0x3d06559d	0.03279649
206	0xbc48a12a	-0.012245456
207	0xbd7ad8a2	-0.061241753
208	0x3d2ba263	0.04190291
209	0xbd0e7586	-0.034780048
210	0xbcc96c77	-0.024587853
211	0xbd958c18	-0.073021114
212	0xbd86e801	-0.0658722
213	0xbdcab56f	-0.09897887
214	0x3d8d0f82	0.068877235
215	0xbd00c19a	-0.031434633
216	0x3d1a356b	0.0376486
217	0xbc960ac7	-0.018315686
218	0xbbe8f0ba	-0.007108775
219	0x3d259979	0.040429566
220	0xba392a0e	-0.00070634566
221	0x3c8f7dfe	0.017516132
222	0x3c9208b1	0.01782641
223	0xbdbb3bbe	-0.09142254
224	0x3d8cdca0	0.068780184
225	0x3dbea843	0.09309437
226	0x3d0cb4f6	0.034352265
227	0x3d797be1	0.060909156
228	0xbd12fcad	-0.0358855
229	0xbda8fb0a	-0.08251007
230	0xbdbcaea3	-0.09212997
231	0xbc356781	-0.011072041
232	0xbcc22564	-0.02369947
233	0xbd77a8fb	-0.060463887
234	0xbcbf504d	-0.02335372
235	0xbbf28e80	-0.007402241
236	0x3d970621	0.07374216
237	0xbcc4e3b7	-0.024034364
238	0x3dc206c7	0.09473949
239	0x3d1c17a9	0.0381085
240	0x3d41707b	0.04722641
241	0x3d1b7577	0.03795382
242	0xbd80453a	-0.06263204
243	0xbcd1a90c	-0.025593303
244	0xbdb9568d	-0.090497114
245	0x3d78a523	0.06070436
246	0x3c71dba8	0.014761843
247	0xbc30ab8c	-0.010783087
248	0xbd9a7f35	-0.07543794
249	0x3d02c9cc	0.03193073
250	0x3d44fdb3	0.04809351
251	0xbc69e3bd	-0.014275488
252	0xbdb12753	-0.086500786
253	0xbd72a9a1	-0.059243802
254	0xbc1ce3b3	-0.009575772
255	0xbd8a7a1b	-0.06761571

_backbone.transformer_blocks.mha_block_0.mha.to_out.bias f4 [32]
0	0xbd69350a	-0.056935348
1	0x3d99df3d	0.075132824
2	0xbca566da	-0.020190645
3	0x3b3c05ca	0.0028689974
4	0xbabc82d3	-0.001438225
5	0xbd5fe812	-0.05466468
6	0x3d330c0a	0.043712653
7	0xbd254e3a	-0.040357806
8	0xbdc3f9d2	-0.09569134
9	0x3d9372d4	0.07199636
10	0x3d196c55	0.03745683
11	0xbd288769	-0.041144762
12	0xbd50a37b	-0.050937157
13	0x3d8ce52f	0.06879651
14	0x3d1f8f33	0.038954925
15	0xbd42f28f	-0.047594603
16	0xbd86e8c3	-0.065873645
17	0xbcd49efa	-0.025954712
18	0xbd82b99f	-0.06383061
19	0xba90945a	-0.001103054
20	0xbb3166b7	-0.002706928
21	0xbd9f196b	-0.0776852
22	0x3d10a131	0.035309974
23	0x3d6fd07d	0.05854844
24	0xbdb28b97	-0.08718031
25	0x3d906e20	0.07052255
26	0xbd3cf865	-0.046135325
27	0x3d77d627	0.060506966
28	0x3dd0046b	0.10157093
29	0x3d84bb94	0.0648109
30	0x3d8dbdc5	0.06920961
31	0xbbe28ed9	-0.0069140014

_backbone.transformer_blocks.mha_block_0.pos_wise_ff.ffn.layer1.weight f4 [128, 32]
0	0x3c1d04c9	0.00958366
1	0xbe0e3ebf	-0.13891123
2	0xbe1dedd5	-0.15422757
3	0x3de78628	0.11304885
4	0xbe4c9263	-0.19977717
5	0x3d9e0eed	0.077176906
6	0xbdd83201	-0.105564125
7	0x3e1a8db6	0.15093121
8	0x3de82ba8	0.11336452
9	0xbcb4eec4	-0.022086509
10	0xbcb54fc4	-0.022132762
11	0xbe15e351	-0.14637496
12	0x3e225d4a	0.158559
13	0xbdc26727	-0.09492331
14	0x3daa0ca3	0.083031915
15	0x3e043e12	0.12914303
16	0xbe33cbd9	-0.1755823
17	0xbe364569	-0.17799915
18	0xbe1251b5	-0.14288981
19	0xbd9fb2a9	-0.077977486
20	0x3d75b6ed	0.059988905
21	0xbd6a9040	-0.057266474
22	0xbd856c4a	-0.06514795
23	0x3e0e4095	0.13891824
24	0x3e00208d	0.12512417
25	0x3ddbac5f	0.107262366
26	0x3e0a6f7e	0.13519093
27	0xbe0dfd84	-0.1386624
28	0xbe14dd7d	-0.14537616
29	0x3d51ac08	0.051189452
30	0xbe0703bd	-0.1318502
31	0xbda6ae5b	-0.081387244
32	0x3d999ebe	0.07500981
33	0x3e514391	0.20435931
34	0xbd8f3c21	-0.069938906
35	0xbe6b09a5	-0.22952898
36	0xbe1eba33	-0.15500717
37	0x3e37b1c3	0.17938904
38	0xbcd3aed7	-0.025840206
39	0xbe2edea2	-0.17077115
40	0xbe0966eb	-0.13418166
41	0xbd9f7c65	-0.07787398
42	0xbd471c06	-0.04861071
43	0xbe2f5f3d	-0.17126174
44	0xbd939cb1	-0.07207621
45	0x3e423213	0.18964414
46	0xbd168959	-0.03675208
47	0xbcc79ed6	-0.024367731
48	0x3dac564b	0.084148966
49	0xbe409ced	-0.18809862
50	0xbe098b1c	-0.13431972
51	0xbdc98333	-0.098394774
52	0x3d4efd07	0.050534274
53	0x39768396	0.00023509408
54	0x3c8d073b	0.017215362
55	0xbc4e2135	-0.012581159
56	0x3d3441cf	0.044008072
57	0xbd281c4e	-0.04104262
58	0xbd8c3696	-0.06846349
59	0xbcf3e1ec	-0.029770814
60	0x3dcdaa78	0.1004228
61	0x3e6421be	0.22278497
62	0xbdc1ceb3	-0.09463253
63	0xbda11f24	-0.07867268
64	0x3d5d7e9e	0.05407583
65	0xbe23ffb2	-0.16015509
66	0xbd4e667b	-0.0503907
67	0x3d48f875	0.049065072
68	0xbcec7f0d	-0.028869176
69	0x3da4a6d1	0.0803963
70	0xbddc3b62	-0.10753514
71	0x3dc0e3aa	0.094184235
72	0x3e6a6cd3	0.22893076
73	0xbdc7ee2c	-0.097622246
74	0x3e515e96	0.20446238
75	0x3e59d97b	0.21274368
76	0xbdec9691	-0.11552156
77	0x3d15f228	0.03660789
78	0xbd2fdb6a	-0.04293386
79	0x3d7cdd6f	0.061734613
80	0xbdf59f78	-0.11993307
81	0x3e33a40d	0.17543049
82	0x3ddde935	0.10835496
83	0x3e53bb05	0.20676811
84	0x3cfe5c7b	0.031049957
85	0x3e2488e7	0.16067849
86	0xbcf81534	-0.030283548
87	0x3d6719bc	0.056421027
88	0x3dbcbeb6	0.09216063
89	0x3d25b3c8	0.040454656
90	0xbcf8d15e	-0.030373272
91	0xbe7bb816	-0.24581942
92	0xbc0de64e	-0.008660866
93	0x3b721bc1	0.0036942812
94	0xbcf90b88	-0.030401006
95	0x3e234041	0.1594248
96	0x3d9317b7	0.071822576
97	0xbdafc38a	-0.08582218
98	0xbc2f54f0	-0.010701403
99	0xbc410842	-0.011781754
100	0xbe115907	-0.14194117
101	0x3b3c37c0	0.0028719753
102	0xbe9abe0f	-0.30223128
103	0x3e6e6762	0.23281625
104	0xbd4ea9f6	-0.050455056
105	0x3db4135c	0.08792755
106	0xbe681f84	-0.22668272
107	0xbe4e4666	-0.20144042
108	0x3e4f0564	0.202169
109	0x3db9cf76	0.09072773
110	0x3e1669f9	0.14688863
111	0x3e84f221	0.2596598
112	0x3e75d9de	0.24008891
113	0x3e4ca535	0.19984896
114	0x3d9c85c6	0.07642703
115	0xbdee5be3	-0.1163862
116	0xbd2396c3	-0.0399387
117	0xbd596126	-0.053071164
118	0xbe13cd9a	-0.144339
119	0x3d294f42	0.04133535
120	0xbd5a5a32	-0.053308673
121	0x3e23fb9a	0.16013947
122	0x3dc82c1a	0.09774037
123	0x3ddc6cd4	0.10762945
124	0x3e42e6c9	0.1903335
125	0xbcfdfc35	-0.03100405
126	0x3da1296c	0.07869229
127	0xbe468b6b	-0.19389121
128	0xbda8062d	-0.08204303
129	0x3cb24f8f	0.021766452
130	0x3e0e52df	0.138988
131	0x3de0161b	0.10941716
132	0xbc00c008	-0.007858284
133	0x3d98492e	0.07435833
134	0x3bab5d98	0.005229663
135	0x3ddfbe18	0.109249294
136	0xbd22e8fa	-0.039772965
137	0x3d89026d	0.06689916
138	0x3ce51b37	0.027967079
139	0x3cfccdc8	0.030859843
140	0xbc12c2fb	-0.00895762
141	0xbe4cc22b	-0.19995944
142	0xbdf56363	-0.11981847
143	0xbd87326b	-0.06601413
144	0xbdf41d75	-0.11919681
145	0x3e05ffb6	0.13085827
146	0x3e7fc502	0.24977496
147	0x3e5984d5	0.21242078
148	0x3d1053e4	0.035236254
149	0xbd898299	-0.06714363
150	0xbe22a4cd	-0.15883179
151	0xbe4ac529	-0.19801773
152	0x3e3b98c5	0.18319996
153	0x3c430779	0.011903637
154	0x3c6aefcd	0.0143393995
155	0xbdaecbb4	-0.08534947
156	0xbdc9c4fd	-0.09852026
157	0xbdb200d9	-0.08691568
158	0xbe826eac	-0.2547506
159	0x3e8085f0	0.25102186
160	0xbc6882c6	-0.014191335
161	0xbe3b0e0c	-0.18267077
162	0x3dbbfe73	0.09179392
163	0x3e225535	0.15852816
164	0x3e5a3f25	0.2131315
165	0xbe1ea483	-0.15492444
166	0x3d9d19b3	0.07670917
167	0xbe3b2569	-0.1827599
168	0xbd9f6c07	-0.077842765
169	0xbe2a1bb4	-0.1661213
170	0xbd6dbdc6	-0.05804231
171	0x3e48bb4f	0.19602703
172	0xbe4dde4a	-0.20104328
173	0xbd5c709a	-0.053818323
174	0xbe189e54	-0.14904147
175	0x3d3a016a	0.045411505
176	0xbd53f652	-0.05174858
177	0xbe08613b	-0.1331834
178	0x3e4cbe25	0.1999441
179	0x3cd8b881	0.026455166
180	0x3da1c987	0.078997664
181	0xbe4353b9	-0.19074906
182	0x3c749f41	0.014930547
183	0xbc9ac67b	-0.018893471
184	0x3e52e92a	0.20596758
185	0xbe22a149	-0.15881838
186	0xbd7cf189	-0.061753783
187	0x3dde4219	0.10852451
188	0xbb751b90	-0.0037400462
189	0xbe44f133	-0.19232635
190	0x3cbfa017	0.023391766
191	0x3e9972bd	0.2997035
192	0xbdcac2a4	-0.09900406
193	0xbc364f3e	-0.011127291
194	0xbe846acb	-0.25862727
195	0xbe70d5f5	-0.23519118
196	0xbd6dc5ff	-0.058050152
197	0x3badf12a	0.00530829
198	0x3d3bad2d	0.04581945
199	0xbc67b80b	-0.014143
200	0xbd80343c	-0.06259963
201	0x3e8fb506	0.28067797
202	0xbe44f750	-0.19234967
203	0xbe82acd7	-0.2552249
204	0xbd0eaa8c	-0.034830615
205	0xbd567264	-0.052355185
206	0x3c3d78ae	0.011564417
207	0xbc2b5de8	-0.010459401
208	0xbc344a29	-0.011004009
209	0xba966099	-0.001147288
210	0x3d1c1928	0.03810993
211	0xbe56bcb7	-0.20970426
212	0xbe1cc8f0	-0.15311027
213	0xbc43ad52	-0.011943178
214	0xbcef076f	-0.02917835
215	0x3e5482d3	0.2075303
216	0xbd997e0d	-0.074947454
217	0x3ce59765	0.028026292
218	0xbdc2011e	-0.09472869
219	0x3e9241c8	0.28565812
220	0xbd0a1341	-0.03370977
221	0x3e99c785	0.30035034
222	0x3d8788be	0.066178784
223	0xbbee810d	-0.0072785676
224	0x3e0576e6	0.13033637
225	0x3d2dcbf0	0.042430818
226	0x3d8a39a5	0.06749276
227	0x3e23ea11	0.16007258
228	0xbc9c5943	-0.019085532
229	0x3c82d958	0.015972778
230	0x3e932061	0.2873564
231	0xbd9827ef	-0.07429492
232	0xbdb3dd84	-0.08782485
233	0x3e0896a6	0.13338718
234	0x3e3e1f87	0.18566714
235	0x3e3ca859	0.18423595
236	0xbe66e8f5	-0.22549804
237	0x3e1e4567	0.15456162
238	0x3dde35d5	0.108501114
239	0xbe1b7407	-0.1518098
240	0x3d8920e5	0.06695727
241	0xbe214168	-0.15747607
242	0x3d900356	0.07031886
243	0x3d90b042	0.070648685
244	0x3dd43f9b	0.10363694
245	0xbe44d5f7	-0.19222246
246	0x3a583001	0.0008246899
247	0xbda65dd3	-0.08123364
248	0x3d9afe3e	0.07568024
249	0xbdb42c29	-0.087974854
250	0xbc89271b	-0.01674228
251	0x3db9e9f1	0.09077824
252	0x3d25ba79	0.040461037
253	0xbd341cf8	-0.04397294
254	0x3d8f31e6	0.06991939
255	0xbbe91af3	-0.0071138083

_backbone.transformer_blocks.mha_block_0.pos_wise_ff.ffn.layer2.weight f4 [32, 128]
0	0x3d176316	0.03695973
1	0xbdc5b961	-0.09654499
2	0x3dc2f96f	0.09520232
3	0xbd00b12e	-0.03141897
4	0xbcc5298d	-0.024067665
5	0x3d86b0ab	0.065766655
6	0x3cdc993a	0.026928533
7	0xbd551c1d	-0.052028764
8	0x3bb103f9	0.005402085
9	0x3d9e339a	0.07724686
10	0x3cefae0b	0.029257795
11	0x3bccbc84	0.0062480588
12	0x3bc35614	0.005961189
13	0x3e25687a	0.16153136
14	0xbdbbb21a	-0.091648296
15	0x3b771209	0.0037699959
16	0x3db846ed	0.08997903
17	0xbc0bc088	-0.00852979
18	0x3e2f0da1	0.17095043
19	0x3de616b9	0.11234803
20	0x3e01798b	0.12644021
21	0x3cc956a4	0.024577446
22	0x3cb7d631	0.022441002
23	0x3d8705e7	0.06592923
24	0x3d888b98	0.066672504
25	0xbb3d719a	-0.0028906823
26	0xbd4cffc5	-0.05004861
27	0x3c9c319e	0.019066628
28	0xba311076	-0.0006754467
29	0x3dd7f317	0.105444126
30	0xbd88d9ee	-0.06682192
31	0xbcb5fd14	-0.022215404
32	0xbc4d5bc9	-0.01253409
33	0x3db5f15b	0.088839255
34	0x3df9c7fa	0.121963456
35	0xbdedf549	-0.1161905
36	0x3cddf90c	0.027096294
37	0xbd81bc67	-0.06334763
38	0x3d2c97cb	0.04213695
39	0xbe17a9c2	-0.14810851
40	0xbd0da17a	-0.034577824
41	0x3cea1c18	0.02857785
42	0x3d9094a9	0.07059605
43	0xbc6c2468	-0.014412977
44	0x3d896601	0.06708909
45	0xbdf0826d	-0.11743627
46	0xbdd6c4e9	-0.104867764
47	0xbdf78d31	-0.12087477
48	0x3df55541	0.119791515
49	0xbd1f6ddf	-0.03892314
50	0x3ded551b	0.11588498
51	0xbd07b8fb	-0.033135395
52	0x3da97ed5	0.082761444
53	0xbd6e17cf	-0.058128174
54	0x3ce5a5d1	0.028033169
55	0xbe082aff	-0.13297652
56	0xbdb212eb	-0.086950146
57	0x3d71d8f3	0.05904479
58	0xbdd11c2b	-0.10210451
59	0xbd880491	-0.06641496
60	0x3dccb2a6	0.09995012
61	0xbd84aba6	-0.06478052
62	0x3b774114	0.0037727999
63	0xbbf160e5	-0.007366287
64	0xbcea54fb	-0.028604975
65	0x3bb85845	0.005625757
66	0xbd5c5295	-0.053789694
67	0x3c12de01	0.008964063
68	0xbcb65a8a	-0.02225997
69	0x3d96c168	0.07361108
70	0x3d5d4028	0.054016262
71	0xbd766ba4	-0.060161248
72	0x3da21548	0.07914215
73	0x3d40afb2	0.047042556
74	0xbe0c83cd	-0.13722153
75	0x3da83f70	0.08215225
76	0x3db5f1b7	0.08883994
77	0x3c8818da	0.016613413
78	0xbde52507	-0.11188703
79	0x3dfb9363	0.12283971
80	0xbdef3cb8	-0.11681503
81	0x3916848e	0.00014354495
82	0xbceebb8b	-0.029142162
83	0x3dec8d50	0.11550391
84	0xbaafcead	-0.0013413035
85	0xbd40620e	-0.046968512
86	0x3a89d0d7	0.001051451
87	0xbd29a17b	-0.041413765
88	0xbc963fa2	-0.01834089
89	0xbda0228d	-0.0781909
90	0xbdb7145d	-0.08939431
91	0x3ca67356	0.020318668
92	0x3de5091a	0.111833766
93	0x3d4d9b8c	0.05019717
94	0xbbeb4c8a	-0.007180755
95	0xbd212a1d	-0.039346803
96	0xbcca0384	-0.02465988
97	0xbc5b818d	-0.0133975865
98	0x3d4f876f	0.05066627
99	0x3e0e8216	0.13916811
100	0x3ccd3a09	0.025052087
101	0xbc9c7dd4	-0.019102968
102	0x3d38afbb	0.045089465
103	0xbdb579a1	-0.088610895
104	0xbcced63a	-0.025248636
105	0xbd4eaed5	-0.0504597
106	0xbd87fb64	-0.06639746
107	0xbd21aa75	-0.0394692
108	0xbdcb8500	-0.09937477
109	0x3e1657af	0.14681886
110	0xbc722834	-0.014780093
111	0x3d1e79ba	0.038690306
112	0xbb4b33f1	-0.0031006301
113	0x3da52907	0.08064466
114	0xbc472310	-0.012154356
115	0xbd4b6ce8	-0.049664408
116	0xbd89638b	-0.067084394
117	0xbd9ac2d9	-0.075566955
118	0xbd8ea0b9	-0.06964249
119	0x3dbec328	0.09314567
120	0x3ce2229e	0.027604397
121	0x393a5a79	0.00017772046
122	0x3d56c534	0.05243416
123	0x3d6992a7	0.057024624
124	0xbd8aac9c	-0.06771204
125	0x3da53bbc	0.08068034
126	0xbc6d5426	-0.014485395
127	0x3d670889	0.056404624
128	0xbdb0a0f7	-0.086244516
129	0x3c006b04	0.0078380145
130	0x3d74f9e7	0.059808638
131	0x3d6b0e75	0.057386834
132	0x3d3b1bce	0.045680813
133	0x3d3593e8	0.044330508
134	0x3d8293d7	0.063758545
135	0xbcfe33e4	-0.031030603
136	0x3cb4dee1	0.022078933
137	0xbcc875a8	-0.024470165
138	0x3d1c7fb2	0.038207717
139	0x3d6d62bc	0.05795549
140	0xbca21ab2	-0.01978812
141	0x3be60090	0.00701911
142	0xbc711d07	-0.014716393
143	0x3c93bdc3	0.018034821
144	0x3d251fc2	0.04031349
145	0x3cf3502e	0.029701319
146	0xbd3ca8aa	-0.046059288
147	0x3cdbcae8	0.026830152
148	0x3df3a5ef	0.11896884
149	0xbd70ec0f	-0.058818873
150	0xbaee1c4e	-0.0018166394
151	0xbdbd8731	-0.09254301
152	0xbc858df2	-0.016303036
153	0x3d8d7d72	0.069086924
154	0x3d84da38	0.064869344
155	0xbdb775b6	-0.089579985
156	0xbd943028	-0.072357476
157	0x3cb0e521	0.021593632
158	0xbbd14c07	-0.006387237
159	0x3dd3a656	0.103344604
160	0x3bcf08c0	0.0063181818
161	0x3d89e988	0.06733996
162	0xbd45a9ed	-0.048257757
163	0xbcccc786	-0.024997484
164	0x3a819bfb	0.0009888405
165	0xbd5395c4	-0.0516565
166	0x3ba79118	0.005113732
167	0xbca8fb68	-0.020627692
168	0xbd2c7f84	-0.042113796
169	0xbd542d5b	-0.051801067
170	0xbb3246f0	-0.0027202927
171	0x3d9f4fd2	0.077788964
172	0x3d0f6dc3	0.035016786
173	0xbd9b31cc	-0.075778574
174	0xbd7e65f6	-0.062108956
175	0x3d61e0bb	0.05514596
176	0xbca8735d	-0.020562822
177	0xbd126549	-0.035741124
178	0xbd47fb92	-0.0488239
179	0x3cd81645	0.026377806
180	0xbe136be2	-0.14396623
181	0xbda0fd70	-0.07860839
182	0xbdc12aa9	-0.09431965
183	0xbdc20ce9	-0.09475119
184	0x3c21d101	0.009876491
185	0x3d037ba8	0.03210035
186	0xbcdce082	-0.026962522
187	0x3cae57a7	0.02128203
188	0x3cb88179	0.022522675
189	0x3d17780e	0.036979727
190	0x3d0c1d5f	0.034207698
191	0xbba0d09a	-0.0049076797
192	0x3daefbaa	0.08544095
193	0x3dacf7c3	0.08445694
194	0xbd2d337a	-0.04228542
195	0x3d7ed736	0.06221696
196	0xb9595b48	-0.00020728738
197	0xbbd2e198	-0.0064355843
198	0x3b290f7c	0.0025796583
199	0xbdb3f2b0	-0.08786523
200	0x3d7b3045	0.06132533
201	0x3d292673	0.041296434
202	0x3dc20738	0.09474033
203	0x3c8b341d	0.016992623
204	0xbd01d7d5	-0.031699974
205	0xbc16c6b3	-0.009202647
206	0xbcf42414	-0.02980236
207	0xbda25395	-0.07926098
208	0x3cfbca77	0.030736191
209	0x3bf0e14d	0.0073510767
210	0xbd00262b	-0.0312864
211	0xbd68941c	-0.056781873
212	0xbc0b1d7c	-0.008490916
213	0x3cd3ae19	0.025839852
214	0x3d9646cd	0.07337723
215	0x3d255654	0.040365532
216	0x3d4e698e	0.050393634
217	0x3d62f90f	0.055413302
218	0xbd6c8f5d	-0.05775391
219	0xbc0d22cf	-0.008614256
220	0xbd87f35c	-0.06638214
221	0xbd20e6e5	-0.0392827
222	0x3cf3f781	0.029781105
223	0x3c94ec38	0.018179044
224	0x3d05150c	0.032490775
225	0x3d9c4746	0.07630782
226	0x3d2a81fd	0.041627873
227	0xbd1b3fab	-0.037902515
228	0xbc90d5ee	-0.017680135
229	0x3b7a15fe	0.003816008
230	0x3d292b02	0.04130078
231	0xbd8190c4	-0.0632644
232	0xbc69e5bd	-0.014275965
233	0x3d86ec36	0.065880224
234	0x3cb9b62b	0.022669872
235	0x3e04c1ae	0.12964508
236	0x3d8faf7f	0.07015895
237	0xbd1a023e	-0.037599795
238	0x3d47906b	0.048721712
239	0xbd72b24d	-0.059252072
240	0xbcb88f00	-0.022529125
241	0xbc22e0d1	-0.009941296
242	0x3c11666c	0.008874517
243	0x3d942fc8	0.07235676
244	0xbd813aae	-0.063100204
245	0x3d89d71b	0.06730481
246	0x3d23f155	0.040025074
247	0xbd10e0d7	-0.035370674
248	0xbc937422	-0.017999712
249	0xbc5a7c41	-0.0133352885
250	0x3d467295	0.048449118
251	0xbcdf6fb9	-0.027274953
252	0x3c561392	0.013066189
253	0xbd011f5a	-0.03152404
254	0x3d52785c	0.051384315
255	0xbbc39ffb	-0.005969999

_backbone.transformer_blocks.mha_block_0.pos_wise_ff.ffn.linear_v.weight f4 [128, 32]
0	0xba0c8f78	-0.00053619547
1	0xbd56f143	-0.05247618
2	0xbdf577ff	-0.11985778
3	0x3d669f77	0.05630442
4	0x3e15df53	0.14635973
5	0xbe26361d	-0.1623158
6	0xbcc5dcba	-0.024153102
7	0xbdf77f39	-0.12084813
8	0xbcde9021	-0.027168335
9	0xbbce201b	-0.0062904484
10	0xbd866865	-0.065628804
11	0x3dd4d421	0.10392023
12	0x3d01bbb3	0.031673145
13	0xbe15ffac	-0.14648312
14	0x3e01cf84	0.12676817
15	0xbd967494	-0.07346454
16	0xbcac5c6b	-0.021040162
17	0x3bf27856	0.007399599
18	0x3dd8a753	0.105787896
19	0x3d662997	0.056192007
20	0x3e38a5fc	0.18032068
21	0xbc3b1511	-0.011418597
22	0xbd2eaeb1	-0.042647067
23	0x3e1da6ac	0.15395612
24	0x3e05b09f	0.13055657
25	0xbca3b4e5	-0.019983718
26	0x3dfd8999	0.1237976
27	0x3d611d3d	0.054959524
28	0x3dafb5bd	0.08579586
29	0xbda75691	-0.08170808
30	0xbe20a56d	-0.15688105
31	0x3d52deeb	0.051482122
32	0xbe0d20a7	-0.13781987
33	0x3dbdfbc6	0.092765376
34	0xbe30c09f	-0.17260979
35	0xbe0b07cf	-0.13577197
36	0xbe6b1c41	-0.22959997
37	0xbdb75e86	-0.08953576
38	0xbc93af36	-0.018027883
39	0xbdfb86c5	-0.122815646
40	0x3db9d6f0	0.09074199
41	0x3d947ab1	0.07249964
42	0x3de22134	0.11041489
43	0xbd1176d1	-0.035513703
44	0xbd869ddb	-0.06573077
45	0xbe0ed8f9	-0.13949956
46	0x3d16b7fc	0.036796555
47	0xbcc07758	-0.023494408
48	0x3b661db1	0.0035112912
49	0xbe1116cf	-0.14168857
50	0x3db06051	0.08612121
51	0xbdcb9eae	-0.09942375
52	0x3d4c8fab	0.0499417
53	0x3d731c8f	0.059353407
54	0xbda01bf3	-0.07817831
55	0x3d14956c	0.036275312
56	0xbd833c52	-0.064079896
57	0xbd3b69d4	-0.045755222
58	0x3c767a8e	0.015043868
59	0x3d87e682	0.06635763
60	0x3e54f37d	0.20796008
61	0x3d9ed6c7	0.07755809
62	0x3e316dc7	0.17327033
63	0x3d1690ba	0.036759116
64	0xbc2ca283	-0.010536793
65	0xbda3ecd7	-0.08004158
66	0x3c8164e0	0.015795171
67	0xbe04c872	-0.12967089
68	0xbe030b3b	-0.12797253
69	0xbd883518	-0.06650752
70	0xbe0b8d61	-0.1362815
71	0x3dd4f663	0.10398557
72	0xbd1fbb15	-0.038996775
73	0x3e17a7a2	0.1481004
74	0xbe4d7b72	-0.20066622
75	0xbe2b6b3f	-0.1674013
76	0xbdec348c	-0.1153346
77	0xbd1e1f60	-0.03860414
78	0x3e42d087	0.1902486
79	0x3d90b9a9	0.07066662
80	0xbd93385a	-0.071884826
81	0xbd1f3660	-0.038870215
82	0xbe176a4f	-0.14786647
83	0xbe03fd3c	-0.1288957
84	0xbe94371d	-0.28948298
85	0xbcc96d80	-0.024588346
86	0x3e11c60c	0.14235705
87	0x3e81dc02	0.25363165
88	0x3cd3580c	0.02579882
89	0x3cc38e54	0.023871578
90	0xbe7a652c	-0.24452657
91	0x3e7fe632	0.24990156
92	0x3e02c739	0.1277131
93	0x3e46ffd1	0.19433524
94	0x3e88eb2a	0.26741916
95	0xbd851a5a	-0.06499167
96	0xbdacb6e2	-0.0843332
97	0x3def9718	0.11698741
98	0x3d6128d9	0.054970596
99	0x3d4b06d0	0.049567044
100	0x3e78b2ef	0.24287008
101	0xbdc06031	-0.09393347
102	0x3e0a6187	0.13513766
103	0xbd504845	-0.05085017
104	0x3e15612e	0.14587852
105	0xbdded5ea	-0.108806446
106	0x3e5e429c	0.21705097
107	0x3d3007c9	0.042976175
108	0xbdb1828d	-0.08667479
109	0x3d0992af	0.033587154
110	0xbe343353	-0.17597704
111	0xbe12b3ec	-0.14326447
112	0xbe0083c5	-0.12550266
113	0xbe27a94f	-0.1637318
114	0x3e6f8e5b	0.23394148
115	0x3e082e99	0.13299026
116	0x3e9c8382	0.30569082
117	0x3d678e10	0.056531966
118	0x3dd9bd6f	0.10631835
119	0x3c394c14	0.011309642
120	0xbd966821	-0.0734408
121	0x3c926879	0.017872082
122	0x3e75a9fd	0.23990627
123	0xbdd04b56	-0.10170619
124	0xbe159f2a	-0.14611498
125	0xbdb49984	-0.08818343
126	0xbe00054a	-0.12502018
127	0xbc70934d	-0.014683557
128	0x3cef4b55	0.029210726
129	0x3df2c19c	0.11853334
130	0xbc99cb4f	-0.018773703
131	0xbe8f3d63	-0.27976522
132	0xbe0046a9	-0.12526955
133	0x3e49d3ca	0.19709697
134	0x3bec442a	0.007210274
135	0x3e32726d	0.17426462
136	0xbdfc79a3	-0.12327888
137	0x3dad32fb	0.084569894
138	0x3d8453e4	0.06461313
139	0xbd9ea184	-0.077456504
140	0x3db1a0be	0.08673237
141	0x3e5f165b	0.21785872
142	0x3e4e96ea	0.20174757
143	0x3e04b961	0.12961341
144	0x3dd73008	0.10507208
145	0x3dd936bf	0.10606145
146	0xbe772f50	-0.24139142
147	0x3baf3407	0.0053467783
148	0xbc1c1cc7	-0.009528345
149	0x3d3ad8da	0.045616962
150	0xbdb8fc5d	-0.090325095
151	0x3e652fad	0.22381468
152	0xbce90e31	-0.02844915
153	0x3e0cbd4a	0.13744083
154	0xbe82ee44	-0.25572407
155	0x3e7df37f	0.24799918
156	0xbd97261f	-0.07380318
157	0x3e275dbd	0.16344352
158	0x3e801285	0.2501413
159	0xbc1b1d6b	-0.009467463
160	0xbe236b1c	-0.15958828
161	0x3d57e41b	0.052707773
162	0xbe96dbeb	-0.2946466
163	0xbe81f9d5	-0.2538592
164	0xbe7e3f0e	-0.24828741
165	0x3e6779f9	0.22605123
166	0xbd55c885	-0.052193183
167	0x3d908e5c	0.07058403
168	0xbd831ce1	-0.064019926
169	0x3e1cfb1e	0.15330169
170	0xbe23c4b9	-0.15993012
171	0xbd058afc	-0.03260325
172	0xbd5becaa	-0.053692497
173	0x3d5d9364	0.05409564
174	0x3e35f3ec	0.1776883
175	0x3e059141	0.13043691
176	0x3e127a86	0.14304551
177	0x3e5c8cb7	0.21538053
178	0xbd71067b	-0.05884407
179	0xbe62f621	-0.22164203
180	0xbe0308c5	-0.12796314
181	0x3e17b3bb	0.14814655
182	0xbe224fe7	-0.15850793
183	0x3c2bc04a	0.010482857
184	0xbc9ff278	-0.019524798
185	0x3d58ecb1	0.0529601
186	0xbb66de68	-0.003522778
187	0x3e2cb855	0.16867192
188	0x3df184eb	0.1179293
189	0x3e597e40	0.21239567
190	0x3e82e9be	0.25568956
191	0xbe545aae	-0.20737717
192	0xbbc6c926	-0.006066459
193	0x3cbb41b8	0.022858486
194	0xbd833599	-0.06406707
195	0xbea0ef22	-0.31432444
196	0x3ca4f23c	0.020135038
197	0x3e4781d5	0.1948312
198	0x3d252a0b	0.0403233
199	0x3e5c9c80	0.21544075
200	0xbe18a8f0	-0.14908195
201	0x3d8bb413	0.06821456
202	0xbe3c4f13	-0.1838954
203	0xbddd2992	-0.107989445
204	0x3d3b2d19	0.045697305
205	0xbc426d46	-0.011866873
206	0x3cec0d56	0.028814953
207	0x3e7be560	0.24599218
208	0x3e36d39a	0.17854157
209	0xbdd612b1	-0.10452784
210	0xbe826c5d	-0.254733
211	0xbe831223	-0.25599775
212	0xbe33835b	-0.17530577
213	0x3c9274e5	0.017878005
214	0x3dfab965	0.122423925
215	0x3dde6551	0.10859168
216	0xbdddada6	-0.108241364
217	0x3e2959da	0.16538182
218	0xbe119ca0	-0.14219904
219	0x3e6a5e62	0.22887567
220	0x3d0b5a19	0.03402147
221	0x3d3e69ad	0.0464875
222	0x3ddada0a	0.10686119
223	0xbe7e8794	-0.24856406
224	0x3e28b4ed	0.16475268
225	0x3dae89ac	0.085223526
226	0x3e6ef9ac	0.2333743
227	0x3e6ec62f	0.23317789
228	0x3d2ab1c5	0.04167344
229	0xbd5337c0	-0.05156684
230	0x3de345db	0.11097308
231	0xbe1c2c1d	-0.15251203
232	0x3d8a2d70	0.06746948
233	0xbe11d278	-0.14240444
234	0x3e3dcd7c	0.18535417
235	0x3de04ce3	0.10952165
236	0xbda057bc	-0.07829234
237	0x3e1bb689	0.1520635
238	0x3d2aa0bf	0.041657206
239	0x3db1dde8	0.086849034
240	0xbe25d0d7	-0.16192947
241	0xbe5597be	-0.20858666
242	0xbdb4eda9	-0.088343926
243	0x3e50de2a	0.20397249
244	0x3e3e24f1	0.1856878
245	0xbe163d3a	-0.14671794
246	0x3bdd6f30	0.0067576393
247	0x3dc83194	0.09775081
248	0xbe3c9ff5	-0.18420394
249	0x3e072eef	0.13201497
250	0xb9d5e191	-0.00040794586
251	0x3d6c0d1e	0.057629697
252	0xbe04d047	-0.12970077
253	0x3b9189b3	0.004441464
254	0x3d3b774e	0.045768075
255	0x3e0856ed	0.1331441

_backbone.transformer_blocks.mha_block_0.attn_add_norm.ln.weight f4 [32]
0	0x3f7ac399	0.9795471
1	0x3f7d129e	0.9885653
2	0x3f7cc40b	0.9873664
3	0x3f7be1af	0.9839124
4	0x3f8235d5	1.0172678
5	0x3f80771a	1.0036347
6	0x3f74862e	0.9551724
7	0x3f839df6	1.0282581
8	0x3f7a9cae	0.97895324
9	0x3f7a8b26	0.97868574
10	0x3f7b9150	0.98268604
11	0x3f728279	0.94730335
12	0x3f7cd119	0.9875656
13	0x3f7d85fc	0.9903257
14	0x3f812704	1.0090032
15	0x3f7d1e7c	0.9887464
16	0x3f81e485	1.0147864
17	0x3f7ab581	0.97933203
18	0x3f82ac51	1.0208837
19	0x3f7952a9	0.97391754
20	0x3f823ac4	1.0174184
21	0x3f7e1d9c	0.9926393
22	0x3f811a5c	1.0086169
23	0x3f82953b	1.0201792
24	0x3f81adca	1.0131161
25	0x3f766885	0.96253234
26	0x3f8238cc	1.0173583
27	0x3f7b91f0	0.9826956
28	0x3f81fa24	1.0154462
29	0x3f786b60	0.9703884
30	0x3f81f03a	1.0151436
31	0x3f810f2e	1.0082757

_backbone.transformer_blocks.mha_block_0.attn_add_norm.ln.bias f4 [32]
0	0xbc817230	-0.01580152
1	0x3c318123	0.010834011
2	0xbc8c78ac	-0.017147385
3	0xbc8cf6e2	-0.017207567
4	0xbc640dba	-0.013919288
5	0x3cb69a77	0.022290451
6	0x3afced8c	0.0019296869
7	0x3ca62d32	0.020285223
8	0xbce1f461	-0.02758235
9	0x3c381374	0.011235107
10	0xbcd2260f	-0.025652913
11	0xbc902707	-0.017596735
12	0x3c08884b	0.008333276
13	0xbc3b7d4d	-0.011443448
14	0x3c811e5b	0.015761545
15	0x3ca08d6d	0.019598687
16	0x3c251a91	0.010077135
17	0x3c5e1873	0.013555634
18	0xbcb139fd	-0.021634096
19	0xbc6cb6a9	-0.014447846
20	0xbc9b3de7	-0.018950416
21	0x3c122894	0.008920807
22	0xbc4b4032	-0.012405442
23	0x3cab6406	0.020921718
24	0xbc83a7d9	-0.016071247
25	0x3c5cc68e	0.0134750735
26	0xbc902f6b	-0.017600736
27	0x3cb8b953	0.022549307
28	0x3cd92967	0.026509
29	0x3cce24ab	0.025163969
30	0x3c94d107	0.018166078
31	0xbc4698bf	-0.012121378

_backbone.transformer_blocks.mha_block_0.ff_add_norm.ln.weight f4 [32]
0	0x3f7ac5bf	0.97957987
1	0x3f7ced31	0.98799425
2	0x3f7e9f6b	0.99462
3	0x3f7bf5e8	0.984221
4	0x3f824fc9	1.0180598
5	0x3f826153	1.0185951
6	0x3f77bace	0.96769416
7	0x3f843966	1.0330017
8	0x3f7dc7f0	0.99133205
9	0x3f7f83cc	0.9981048
10	0x3f7c3cbd	0.9853018
11	0x3f7f954d	0.9983719
12	0x3f7d254a	0.98885024
13	0x3f7e952e	0.9944638
14	0x3f81dd87	1.014573
15	0x3f7e05a3	0.9922735
16	0x3f8255aa	1.0182393
17	0x3f800305	1.0000921
18	0x3f82dcea	1.0223668
19	0x3f7e459f	0.99324983
20	0x3f82bf29	1.0214587
21	0x3f7ed420	0.9954243
22	0x3f829d66	1.0204284
23	0x3f830b09	1.0237743
24	0x3f81ce94	1.0141168
25	0x3f803f93	1.0019401
26	0x3f826ff2	1.0190413
27	0x3f7d246e	0.9888371
28	0x3f81e94d	1.0149323
29	0x3f79b841	0.97546774
30	0x3f8215da	1.0162919
31	0x3f8026e8	1.0011873

_backbone.transformer_blocks.mha_block_0.ff_add_norm.ln.bias f4 [32]
0	0xbc99e166	-0.018784236
1	0x3bed43a5	0.00724073
2	0xbcda9ae6	-0.02668519
3	0xbc9d8405	-0.01922799
4	0xbc6fd425	-0.014637982
5	0x3cda9d4d	0.026686335
6	0x3b656f8f	0.003500912
7	0x3cd1fa29	0.025631981
8	0xbcf05c17	-0.029340787
9	0x3c6b9d3a	0.014380747
10	0xbceaf01d	-0.028678948
11	0xbcafbb5a	-0.02145164
12	0x3b89f7c2	0.0042104432
13	0xbc764041	-0.015029968
14	0x3c842a42	0.016133431
15	0x3cb66966	0.022267055
16	0x3c42f4e0	0.011899203
17	0x3c967455	0.018366018
18	0xbcbec6ea	-0.023288209
19	0xbc88df52	-0.01670805
20	0xbcb7ec65	-0.022451589
21	0x3c4ab1b5	0.01237147
22	0xbc65b879	-0.0140210325
23	0x3cc925ea	0.024554212
24	0xbc9e7d00	-0.019346714
25	0x3c2dcf8d	0.010608566
26	0xbca3abac	-0.01997932
27	0x3cc69e90	0.02424553
28	0x3cde1fc1	0.02711475
29	0x3ce97bb1	0.028501363
30	0x3cb5702b	0.022148212
31	0xbc25e3d0	-0.0101251155

_backbone.transformer_blocks.mha_block_1.mha.to_qkv.weight f4 [384, 32]
0	0xbd6c42c1	-0.05768085
1	0x3d87d346	0.06632094
2	0x3ccc2747	0.024921073
3	0xba78f76e	-0.0009497319
4	0x3e218398	0.15772855
5	0xbe07f91b	-0.1327862
6	0x3e08e584	0.13368803
7	0xbddd4e56	-0.10805957
8	0x3db7d1b3	0.08975544
9	0xbe1d0c36	-0.1533669
10	0x3e32dad9	0.17466296
11	0x3e2bab41	0.16764547
12	0x3d3bf2e0	0.04588592
13	0x3e03eae9	0.1288258
14	0xbdb9f8d3	-0.090806626
15	0xbd3e14b2	-0.046406455
16	0xbe20d48c	-0.1570608
17	0x3e094bee	0.13407871
18	0xbdb0aa80	-0.0862627
19	0xbc4552a5	-0.01204363
20	0x3e24527f	0.16047095
21	0xbe35cfb4	-0.17755014
22	0xbe1083dc	-0.141128
23	0x3dab86d9	0.083753295
24	0xba4d4382	-0.0007830189
25	0xbddb4a8a	-0.107075766
26	0xbe2e8904	-0.17044455
27	0xbe22eb40	-0.15910053
28	0xbd5485ac	-0.051885292
29	0x3df102c2	0.11768104
30	0xbdd2f62e	-0.10300861
31	0xbe146e02	-0.1449509
32	0xbd857543	-0.065165065
33	0x3dc77b2d	0.09740291
34	0xbdeb8525	-0.11500005
35	0x3db2ca4a	0.0872999
36	0x3c692f07	0.014232404
37	0x3d92bf16	0.07165353
38	0xbe0099e2	-0.12558702
39	0x3d8bdf90	0.068297505
40	0x3d3af2b2	0.04564161
41	0xbd3029d6	-0.043008648
42	0x3de62f0d	0.11239443
43	0x3c062f2e	0.008189959
44	0xbdecbf0e	-0.11559878
45	0xbe285434	-0.16438371
46	0xbd3c37d9	-0.045951698
47	0xbdfe14a2	-0.12406279
48	0xbd567668	-0.052359015
49	0x3daa4cea	0.083154514
50	0x3a58916d	0.0008261416
51	0x3e1ae0d0	0.15124822
52	0xbe1b251d	-0.15150876
53	0xbd76602a	-0.060150303
54	0x3e013ce8	0.1262089
55	0x3e0da95c	0.13834137
56	0xbda9ba47	-0.08287483
57	0xbe246b18	-0.16056478
58	0xbe06d97f	-0.13168906
59	0x3de438fb	0.11143681
60	0x3e247269	0.16059269
61	0xbe0ada51	-0.13559844
62	0xbd92bbb2	-0.07164706
63	0xbd47e29d	-0.0488001
64	0x3d8d6228	0.069034874
65	0x3d922f39	0.07137913
66	0xbe2671f1	-0.16254403
67	0xbe31e879	-0.17373838
68	0xbdf4b31e	-0.119482264
69	0x3e4afdf5	0.1982344
70	0xbe3ad498	-0.1824516
71	0xbe07eba7	-0.13273488
72	0xbb1c5852	-0.0023856354
73	0xbded127f	-0.115757935
74	0xbd6bd1d9	-0.057573173
75	0x3d624871	0.055244867
76	0xbd44c9f2	-0.048044153
77	0xbde96156	-0.113955185
78	0x3de7a231	0.113102324
79	0xbdb511e3	-0.08841302
80	0xbd4a214d	-0.049348164
81	0xbdd030ae	-0.10165535
82	0xbe124dbf	-0.1428747
83	0xbe17eb97	-0.14835964
84	0x3e2aa015	0.16662629
85	0x3e35c811	0.177521
86	0x3db511b5	0.08841268
87	0xbdf738cb	-0.12071379
88	0xbd854cbb	-0.06508776
89	0xbe1f6be2	-0.15568498
90	0x3caf2b4b	0.021382948
91	0x3ce73156	0.028221767
92	0x3e18dcd1	0.14927985
93	0x3e2fcea5	0.17168672
94	0x3de3b246	0.11117987
95	0xba50757d	-0.00079520774
96	0x3e21bbc5	0.15794285
97	0xbdd06a54	-0.101765305
98	0x3e26bec7	0.16283713
99	0x3e1d4c12	0.1536105
100	0xbe03f6ea	-0.12887159
101	0x3da46363	0.08026769
102	0x3c805168	0.015663818
103	0x3cd41e1c	0.025893264
104	0x3cadfdb2	0.021239135
105	0xbe0365d9	-0.1283182
106	0x3e0cc4f1	0.13747002
107	0x3d26bab5	0.0407054
108	0xbe2d4a65	-0.1692291
109	0xbdb40349	-0.08789689
110	0xbc25e177	-0.010124556
111	0xbe2c4898	-0.16824567
112	0xbcef9468	-0.02924557
113	0x3de18106	0.110109374
114	0x3e244c65	0.16044767
115	0xbd62fca2	-0.05541671
116	0x3e2d7521	0.16939212
117	0xbde53625	-0.11191968
118	0xbd9fdfea	-0.0780638
119	0x3d1d1c2a	0.038356937
120	0x3e193063	0.14959864
121	0xbdd20120	-0.10254121
122	0x3d0e6f0e	0.03477388
123	0x3e17e837	0.14834677
124	0x3e2383a9	0.15968193
125	0x3cc665f6	0.02421854
126	0x3d97bf69	0.074095555
127	0xbb22fe4a	-0.0024870806
128	0xbd01581c	-0.03157817
129	0x3e2e8202	0.17041782
130	0x3dcba80f	0.09944164
131	0x3e13af33	0.14422302
132	0xbd69e47b	-0.05710266
133	0x3e2ddc21	0.16978504
134	0xbc495f43	-0.012290779
135	0x3dd133b9	0.102149434
136	0xbdb91661	-0.090374716
137	0x3dbe62da	0.09296198
138	0xbde0a1b0	-0.109683394
139	0xbdfbea00	-0.12300491
140	0x3dcd448c	0.1002284
141	0xbd9c6425	-0.076362886
142	0xbdf74b67	-0.12074929
143	0x3db4a2ab	0.08820089
144	0x3d22f9df	0.039789077
145	0x3e098187	0.13428317
146	0x3d2f2336	0.04275819
147	0x3d4b19d8	0.049585193
148	0xbdc97069	-0.09835894
149	0xbe153311	-0.14570262
150	0x3da3a127	0.07989722
151	0xbbc9b7e0	-0.006155953
152	0xbdc08d42	-0.09401943
153	0xbe1fc88f	-0.15603851
154	0xbd0b77c4	-0.034049764
155	0xbdac962d	-0.08427081
156	0x3e173c7f	0.14769171
157	0xbdf9599f	-0.12175297
158	0xbdf0909a	-0.117463306
159	0xbb430866	-0.0029759645
160	0xbcc3088c	-0.023807786
161	0xbdfd9230	-0.12381399
162	0x3dab9706	0.08378415
163	0x3e03d358	0.1287359
164	0xbe6b6efe	-0.22991559
165	0x3e25c890	0.1618979
166	0xbdaee17b	-0.08539101
167	0x3d6d3034	0.0579073
168	0xbe03357b	-0.1281337
169	0x3d739047	0.059463765
170	0x3d43655d	0.04770409
171	0xbe0422df	-0.12903927
172	0xbc8729ed	-0.016499484
173	0xbe05e369	-0.13075031
174	0xbdbacaef	-0.09120738
175	0xbd834077	-0.0640878
176	0x3e53705f	0.20648335
177	0xbdb56ecf	-0.08859026
178	0xbe054fed	-0.1301877
179	0xbcd998be	-0.026562091
180	0xbd401329	-0.046893273
181	0x3e21f88d	0.15817471
182	0xbe3e887a	-0.18606749
183	0x3e5d4b0d	0.21610661
184	0xbe48f3fe	-0.19624326
185	0xbe2b6694	-0.16738349
186	0x3dfd8cd5	0.12380377
187	0x3dfc9f04	0.12335017
188	0xbce17739	-0.02752267
189	0xbdc34173	-0.09533968
190	0xbd11cc74	-0.035595372
191	0xbe14d2c4	-0.14533526
192	0xbda83e47	-0.082150035
193	0x3e2b6510	0.16737771
194	0xbdeb5f1b	-0.11492749
195	0xbe1c1f7f	-0.1524639
196	0x3e00d325	0.12580545
197	0xbd880205	-0.0664101
198	0x3e261ec9	0.16222681
199	0xbe06a3a0	-0.13148355
200	0x3d90e3c3	0.07074692
201	0xbe02ee3a	-0.12786189
202	0xbe34b48c	-0.17646998
203	0xbda8604c	-0.08221492
204	0x3d152e63	0.03642119
205	0x3d839b67	0.06426125
206	0xbd93ed86	-0.072230384
207	0x3db08395	0.08618847
208	0xbdda29fa	-0.10652538
209	0xbd99a7d3	-0.07502713
210	0x3da4cba1	0.08046652
211	0x3dd3d785	0.103438415
212	0x3e29b94a	0.16574588
213	0xbe246fa3	-0.16058211
214	0xbdfeaf3b	-0.12435766
215	0x3e0063d6	0.12538084
216	0xbdd46686	-0.10371117
217	0xbe05cf5a	-0.1306738
218	0xbde527c7	-0.111892276
219	0x3da1eca0	0.07906461
220	0xbe0db561	-0.13838722
221	0xbdde8e84	-0.108670264
222	0xbb50609b	-0.0031795863
223	0x3d234c74	0.039867833
224	0x3cdf7504	0.027277477
225	0xbc923996	-0.017849725
226	0x3e06534f	0.13117717
227	0xbe00b9c3	-0.12570862
228	0x3c90e13e	0.017685529
229	0xbda1edcb	-0.079066835
230	0x3b270156	0.0025482974
231	0xbe2dafcd	-0.16961594
232	0x3dc8c70f	0.098035924
233	0x3d102cb1	0.03519887
234	0x3da4d479	0.080483384
235	0x3b578f3e	0.0032891775
236	0xbdf9cd6b	-0.121973835
237	0x3d27c2ea	0.04095737
238	0x3dbbe5cc	0.0917469
239	0x3e1e21be	0.15442559
240	0x3d314511	0.043278757
241	0xbda165ff	-0.07880782
242	0xbe0c6163	-0.13709025
243	0x3e0cb5d6	0.1374124
244	0x3ddbbe55	0.10729662
245	0x3e3cf251	0.18451811
246	0xbe080b63	-0.13285594
247	0xbdc47878	-0.0959329
248	0xbe066219	-0.13123359
249	0x3d7fc0e4	0.062439814
250	0xbc2e9fa4	-0.0106581785
251	0x3e051aea	0.12998548
252	0xbdfe19b2	-0.12407245
253	0x3cf7697b	0.030201664
254	0xbe435c4a	-0.19078174
255	0xbcfc40eb	-0.030792674
